models/tmp.pth (torch_old, 16746 bytes, 9 tensors)

encoder.weight_ih_l0 f4 [80, 1]
000000 2a ec a9 3e d7 e9 8f be 98 cf c0 3e 72 32 9b 3e
       0.3318799 -0.28108093 0.3765838 0.30311924
000010 84 4d c6 3d f8 dc 28 3e 35 3e 56 be 0e ae d8 bd
       0.09682754 0.16490543 -0.20922168 -0.10580073
000020 de 30 1b bc d8 db 8b 3e a8 c0 07 bd 5a c8 82 3c
       -0.0094721 0.27316165 -0.033142716 0.015964676
000030 75 06 56 3e 91 68 58 3e 34 67 11 3e e4 30 54 be
       0.209009 0.21133639 0.14199525 -0.20721775
000040 f4 0b ee bd 31 52 39 3e da aa c2 39 9a e2 2a 3d
       -0.11623374 0.1809776 0.00037129858 0.04172001
000050 96 8f 0b 3e 29 ce f2 be 18 03 bd 3c c0 f0 9f 3e
       0.13628992 -0.47422913 0.023072764 0.31238365
000060 0d 88 3d 3e 30 83 8f 3e 0d a3 76 3d 63 08 d4 bd
       0.1850893 0.28029776 0.06021409 -0.10353162
000070 79 8c 42 be 4f 8c 94 3e 0b 75 15 3e b0 90 fe 3a
       -0.18998899 0.29013297 0.1459543 0.0019421782
000080 4d 30 93 be f1 5a 05 3e 4a 58 48 bd f5 31 23 3e
       -0.28747788 0.13022973 -0.048912324 0.15937026
000090 89 b2 40 be c6 54 30 be 0a 1c 09 3e 0e a1 2b be
       -0.18818106 -0.17219839 0.13389602 -0.16760656
0000a0 92 ce 39 3e c4 a8 b0 be 51 fa 66 be c5 e8 b4 bd
       0.18145207 -0.34503758 -0.22556426 -0.0883346
0000b0 50 10 00 3e 24 2a 18 be 75 7d 96 3d 6c e1 ce bd
       0.12506223 -0.14859825 0.07348148 -0.101015896
0000c0 b0 3f 32 3d 22 27 b9 be d1 4a 1c be c9 7b 49 be
       0.04351777 -0.36162668 -0.15262915 -0.19676127
0000d0 94 3d bf 3e 66 a5 90 bb d4 6c 06 be 9f d4 c0 bc
       0.37351668 -0.0044142483 -0.13127452 -0.023538886
0000e0 22 55 43 be f9 9c 2f bd 72 a5 17 3d 67 c4 cd be
       -0.19075444 -0.04287431 0.037023015 -0.40188906
0000f0 c3 2f 71 3d 49 ff 61 be f5 01 c3 bd 9b 9c 17 3c
       0.05888344 -0.2207004 -0.09521858 0.009253646
000100 3b e4 d8 3e 33 a9 0c be 54 0b 89 be 9d f3 e4 3d
       0.42361626 -0.1373642 -0.26766455 0.11179278
000110 51 a7 0a be 2f f7 cc 3e 36 63 40 3e 36 8b af 3e
       -0.13540389 0.40032336 0.18787846 0.34285897
000120 e9 fa 67 be 0e dd c5 be 8d 43 9d 3e 22 bd 79 3e
       -0.22654308 -0.38645214 0.307156 0.24388555
000130 72 72 8f 3e 4e 52 b8 3d ea ab a2 be 2a 54 25 bd
       0.28017002 0.090000734 -0.31771785 -0.04036347

encoder.weight_hh_l0 f4 [80, 20]
000000 ed 31 02 3e 69 05 85 bc 00 64 e4 be 5f eb 2d 3c
       0.12714358 -0.016237931 -0.44607544 0.010615199
000010 86 08 b1 bd 50 56 5b bc 31 c2 ba 3d fb 4d f3 3d
       -0.08644204 -0.013387278 0.0911907 0.11880108
000020 1c d1 e1 bd b5 02 a9 be 0c 0e d5 be 2c 4e e8 bd
       -0.110262126 -0.33009878 -0.4161228 -0.11343035
000030 58 d8 7e 3e ba 3b b2 be 42 d4 bd be f1 1e 59 3e
       0.24887216 -0.34811193 -0.37076002 0.2120321
000040 73 70 d6 3c ec ce c1 3e 60 23 ed bd ea 0c 85 be
       0.026176667 0.3785318 -0.11579013 -0.25986415
000050 d9 6f 14 3c 3e d9 cf 3e f6 0a b0 bd f6 ab b1 bd
       0.00905987 0.4059543 -0.08595841 -0.08675377
000060 bd 91 c5 bd 54 6e ee be cc a2 18 3e d7 12 af 3d
       -0.09646938 -0.4656855 0.14905852 0.08548515
000070 f4 40 de be ca 99 7a be 41 94 01 be e8 bb c8 be
       -0.4340893 -0.24472728 -0.1265421 -0.3920586
000080 39 73 99 bc 02 a2 9a be a9 68 34 be d7 58 06 3e
       -0.0187317 -0.30201727 -0.1761805 0.13119827
000090 5e d7 52 3e 86 08 17 be 42 00 9b bd 6c 88 9e 3c
       0.20589969 -0.14749345 -0.075684085 0.01935216
0000a0 dd 72 fb bd d2 68 97 3c eb 91 d8 3d 68 9c 69 be
       -0.12277768 0.0184826 0.10574707 -0.2281357
0000b0 76 cb 12 3d 27 0d 8e bc e2 59 4a bd 87 43 df 3d
       0.035838567 -0.017340256 -0.049402125 0.10901552
0000c0 7c 20 a1 bd 57 66 73 bd 82 09 98 be 92 85 71 3d
       -0.07867524 -0.05942377 -0.29694754 0.058965273
0000d0 a0 66 74 3d 16 c8 e8 bb e9 b5 99 3d ee ae a7 3d
       0.059668183 -0.00710393 0.075054 0.08187662
0000e0 24 9e 8c bd 56 91 ab 3e db f6 a6 3c 56 9b 0c be
       -0.068661004 0.3350932 0.020381382 -0.13731131
0000f0 2f aa aa 3e a3 40 c2 3b 7f d1 16 be 39 9e dd bd
       0.33332965 0.0059281155 -0.14728354 -0.10821194
000100 16 ba 42 be 4b fc 5f be b5 c3 93 3e f0 b3 15 3e
       -0.19016299 -0.21873586 0.2886025 0.14619422
000110 e1 88 63 be 8b 52 ee bd 76 5a ae 3d a4 7e 33 bd
       -0.22220184 -0.116368376 0.08513348 -0.043821946
000120 1a a4 5b 3c 70 7a ad 3c 84 9a 6a be 1b 7a 66 3d
       0.013405824 0.021176547 -0.22910506 0.056268793
000130 7d 02 24 bc 3c 75 89 be 62 9f bf 3d ef 50 c6 bd
       -0.010010359 -0.26847255 0.09356572 -0.096834056
000140 b2 2b 75 3e e3 cc 53 3e 1b 4b 90 3c fe 6e 10 ba
       0.2394245 0.20683627 0.017613938 -0.0005509703
000150 0b 5d 2d be 46 6c 9c 3d 3e a6 c2 3c 1c 63 fa 3d
       -0.16930024 0.07637839 0.023760911 0.12225935
000160 da 21 17 be 34 ad 97 3c 38 38 8a bd ae c0 34 3d
       -0.14759007 0.018515207 -0.06749004 0.044129066
000170 dc c3 68 be 26 b3 80 be ea 90 76 be a1 ef 38 3d
       -0.22730964 -0.2513668 -0.24078718 0.045150403
000180 ed 33 fd bc c0 3f cf bd e0 2f 9a 3d 2a b4 48 3e
       -0.03090855 -0.10119581 0.07528663 0.19599977
000190 97 ec 80 3e ea ee 9a 3c c4 d5 a4 3d 1d 90 3a be
       0.25180504 0.018912751 0.08048585 -0.18219037
0001a0 42 be 98 be b9 32 3d bd 63 83 a7 3e 3d 7a 09 bd
       -0.29832655 -0.04619095 0.32717428 -0.03356384
0001b0 34 15 30 bc 87 8e 43 bd aa 70 f1 3b 8d f1 84 3d
       -0.010747243 -0.047743347 0.007368167 0.06491385
0001c0 ce 48 e0 3d d2 c0 58 be 0e 15 9c be 5c ff 16 bc
       0.109513864 -0.21167305 -0.30484813 -0.009216156
0001d0 1a 32 17 3d 54 af a5 bd 47 e1 1f 3d a2 73 aa be
       0.036913015 -0.08090082 0.0390332 -0.33291346
0001e0 ed 9d 57 3e 8b 8c 16 bc db 62 9c 3c 91 d2 2a be
       0.21056338 -0.0091887815 0.019090107 -0.16681887
0001f0 0d 0f 00 bd 1f 93 50 3e c1 57 96 bd fc ac 1e bd
       -0.031264354 0.20368622 -0.073409565 -0.03873919
000200 a9 b8 39 3d 7b e8 3a 3e 50 df 33 be fe 12 08 be
       0.04534212 0.18252747 -0.17565656 -0.13288495
000210 af 43 4c be bf 5e 87 bd 04 c0 3c 3e 3b 35 b1 3c
       -0.19947694 -0.06609868 0.18432623 0.021631828
000220 21 78 97 3d 7d 5c 41 3e d0 ef 4c bc 5b ee 0f 3e
       0.0739596 0.18882938 -0.012508348 0.14055769
000230 64 11 a0 3d 1a d9 24 3e 60 c8 f8 bd 3d 61 08 be
       0.07815817 0.16098443 -0.121475935 -0.13318343
000240 00 09 85 be af 36 d6 bb 6e 7e 32 3d a5 34 92 3c
       -0.2598343 -0.0065372805 0.043577604 0.017847368
000250 d5 23 b4 bd 63 f5 a9 be e4 03 01 be eb ef 05 3d
       -0.08795897 -0.33195028 -0.1259914 0.032699507
000260 88 3b 45 bd 77 38 51 bd 2f fd 2e 3c a3 a3 a3 3e
       -0.048152477 -0.05107924 0.010680481 0.31960782
000270 a8 f8 3f 3d 34 63 f8 be e6 e7 35 3d b2 87 05 bc
       0.046867996 -0.48513186 0.04441061 -0.008150028
000280 2e a1 a1 3e 28 e5 bd 3c 64 e2 23 be 57 18 ee bd
       0.31568283 0.02318056 -0.1600433 -0.11625736
000290 7e 55 b8 bd f5 c6 0c 3e 02 e2 6b 3e fb ff 46 be
       -0.09000681 0.13747771 0.23035434 -0.19433586
0002a0 19 93 09 3e 03 6f f9 bd 9e 65 d1 bc bf 32 29 be
       0.1343502 -0.12179377 -0.02556115 -0.16523264
0002b0 9c 78 03 3e b0 22 1f bd b3 bc 44 be 30 08 71 3e
       0.12838978 -0.03885144 -0.19212608 0.2353828
0002c0 b6 29 17 be 3e 7d 7b be b4 2d c3 3d 62 52 51 3b
       -0.14762005 -0.24559495 0.095302016 0.0031939973
0002d0 68 91 0f be c3 c6 97 bc fb 45 7b be 57 7b 9a 3d
       -0.14020312 -0.018527394 -0.24538414 0.075430565
0002e0 66 65 51 3e 87 b0 ea bc 2e 06 4b be 4a cc 91 3c
       0.20448837 -0.028648628 -0.19826576 0.017797608
0002f0 be 0d 46 bc 29 14 77 be d6 54 17 3e 3b be b6 bd
       -0.012088237 -0.24128784 0.14778456 -0.08923002
000300 cb 4d be 3e e7 ef 56 3e aa 68 5e 3d 87 b3 14 3e
       0.37168726 0.20989953 0.054299034 0.14521609
000310 f1 e9 50 3e 72 24 6f 3d 1f 6f 18 be 43 a7 06 3c
       0.20401742 0.058384366 -0.1488614 0.008218589
000320 c7 68 3b bc ba 61 95 3c 11 fe d9 bd 51 0b 81 be
       -0.011438555 0.018235076 -0.106441624 -0.25203946
000330 57 63 e4 bd 6d 02 60 bc e8 52 40 3e 11 dc 72 bb
       -0.1115176 -0.013672453 0.18781626 -0.003705744
000340 95 68 76 be 12 d0 8b be ad eb 8e bd f3 8b a6 3d
       -0.24063332 -0.27307183 -0.06978545 0.08132162
000350 3b 22 d0 3d 31 98 e8 3d 7a 6e 32 bb 27 67 98 3e
       0.10162779 0.11357153 -0.0027226494 0.297662
000360 84 3e ea 3d 1f 77 38 be 52 1a 22 3e 56 53 e3 bd
       0.11437705 -0.18014191 0.15830353 -0.110998794
000370 00 58 8e 3e 9b 37 1a 3e a1 1a 8d be e9 97 07 be
       0.27801514 0.15060274 -0.2755938 -0.13241543
000380 aa 91 a5 3d 60 1a 06 3b f9 32 23 bd 65 af 62 3e
       0.08084424 0.0020462498 -0.039843533 0.2213722
000390 bd 26 90 3d a4 af 1d 3d 91 77 1d be 7b 50 45 be
       0.07038639 0.038497582 -0.15377642 -0.19268982
0003a0 a4 44 33 be dd 18 99 bd 4c d8 c4 3c 2d 89 c7 bd
       -0.17506653 -0.074754454 0.02402892 -0.09742961
0003b0 83 95 02 be 54 8a 73 be b1 c4 60 3d ba 22 7e be
       -0.12752347 -0.23783237 0.05487508 -0.24817935
0003c0 46 81 d2 3e 52 af 93 3e 6e 1e ba be 64 f0 23 bf
       0.41114253 0.28844696 -0.3635134 -0.6403868
0003d0 65 0c 8f be 26 0f c0 be 93 e0 48 3d 9b fd 21 3f
       -0.27939144 -0.37511557 0.049042296 0.63277596
0003e0 33 31 be be ee 8b e4 be be ce 98 be 6f 62 17 bf
       -0.3714691 -0.44638008 -0.29845232 -0.5913457
0003f0 f5 d6 bb 3d a1 b7 93 be 11 52 02 bf 82 d8 11 3f
       0.09171859 -0.28851035 -0.50906473 0.5697099

encoder.bias_ih_l0 f4 [80]
000000 8e db b1 3b 75 3f e6 3e 6f be 9d 3e 49 c1 5b 3d
       0.0054277843 0.4497029 0.30809352 0.053651128
000010 b6 ff 6a bd 95 03 86 3e 91 e1 c9 3c 24 ea 30 3c
       -0.05737277 0.26174608 0.024643691 0.010798011
000020 cd 77 53 3e 7b f0 de bd 31 9c 4f 3e 11 9a 89 bd
       0.20651169 -0.10885712 0.20274426 -0.06718839
000030 07 65 0c 3f e3 02 92 3d 46 c2 8a 3e 74 73 0a bd
       0.54841655 0.07129457 0.27101344 -0.03380151
000040 75 b1 b3 bd 8e f8 ed 3e e5 24 22 be 2a 5e ca 3d
       -0.087740816 0.46478695 -0.15834387 0.098812416
000050 24 cc 39 be e1 02 68 3c c8 d3 ea 3d 77 d8 12 be
       -0.1814428 0.014160843 0.11466175 -0.14340387
000060 ec 6f 1d 3e 54 80 45 3e 26 11 62 3e ea 6a 2b be
       0.15374726 0.19287235 0.22076854 -0.16740003
000070 96 6f 8e 3e 31 70 f4 bc 2b 14 82 bd 93 96 0c be
       0.27819508 -0.029838653 -0.06351503 -0.13729315
000080 70 d0 cc 3d b2 dd 95 bd d9 8d 8c bd 73 dc 82 3e
       0.10000694 -0.07317676 -0.06862993 0.25558814
000090 f8 46 1f be f5 73 bb 3d 89 e2 89 3e 24 2d 06 be
       -0.15554416 0.091529764 0.26930645 -0.13103157
0000a0 fa bd bc 3d b0 4d b4 3d 7b 6d 67 be 00 8a 2b 3e
       0.09215923 0.0880388 -0.22600357 0.16751862
0000b0 d3 eb 6b 3d 6c b1 68 bd da 78 2d bd 59 1f 5d 3e
       0.057597946 -0.056809828 -0.04235158 0.2159399
0000c0 f7 0a 6f be ba 60 33 be b1 6d db bd b1 c1 5e be
       -0.23344027 -0.17517367 -0.10714281 -0.21753575
0000d0 ef b1 ff bc 4a d8 8e be 45 e2 76 be 0b f9 9f 3d
       -0.031212775 -0.2789939 -0.24109752 0.07811173
0000e0 91 39 1c 3e be 63 ea 3d 03 ce 45 be 05 08 0c 3c
       0.15256335 0.114448056 -0.19316868 0.008546834
0000f0 9c 8d a2 3e 36 12 95 3e 4d 90 1f 3d 45 b8 06 3d
       0.31748664 0.29115456 0.038955975 0.032890577
000100 c0 0f 95 3d 75 a1 b3 bd 25 1f 33 3e fe 55 99 3d
       0.07278395 -0.0877103 0.1749235 0.07487105
000110 e7 8b 29 3e 22 2d 51 3e f2 f0 d8 bd e2 4b 23 3c
       0.16557275 0.20427373 -0.10592832 0.009966822
000120 03 2e 04 3f 97 1e 60 3e be 30 4f 3e 17 08 1a 3e
       0.5163271 0.21886669 0.20233437 0.15042149
000130 8a 1a 22 3e 7f 89 4a 3e e6 de 54 3e 4b 99 95 3e
       0.15830436 0.19779013 0.20788154 0.29218516

encoder.bias_hh_l0 f4 [80]
000000 a0 0a d6 3e 76 7d 3c 3e 36 08 26 3d 09 91 d4 3d
       0.4180498 0.18407235 0.040535174 0.10379226
000010 34 08 52 3e 0d 12 84 3e 63 03 d7 bd f8 22 1e 3d
       0.20510942 0.25795022 -0.10498693 0.038607568
000020 b8 a0 fa 3c a5 55 16 3e 31 5e 1a bd cd 39 2b 3d
       0.030594215 0.14681108 -0.037687484 0.04180317
000030 c3 92 bd 3e 62 31 33 3e af 55 fa bd 81 ee 8e 3d
       0.37026033 0.17499307 -0.12223374 0.06979085
000040 56 79 8c 3d b5 66 9b 3e ca 9a 40 3e 8d e5 64 bc
       0.068590805 0.30351797 0.18809047 -0.013970745
000050 86 a2 52 be 14 d5 05 3e f3 21 b7 bd 9b f9 d8 3d
       -0.2056981 0.13069564 -0.08942022 0.105944835
000060 1f 01 89 3e 31 0d f8 bd 34 cb 28 3e 50 17 0f 3e
       0.26758668 -0.12111891 0.16483766 0.13973737
000070 ee 52 de 3d 94 2a 16 3e 49 f8 b3 3d 3d 40 93 bd
       0.10855661 0.1466468 0.08787591 -0.07189987
000080 d7 28 8e 3d 96 eb 5f bd 2b ac 62 3e 69 8b 4d 3d
       0.06941383 -0.05466803 0.2213599 0.05018178
000090 36 63 78 3e 26 9c 79 bd 21 5b 81 3e 84 78 a0 3d
       0.24256596 -0.06093993 0.25264838 0.078354865
0000a0 a0 8f 23 3e d4 a6 ff bc 6e b2 1c be 53 52 fe bd
       0.15972757 -0.03120748 -0.1530244 -0.12418046
0000b0 0d ce 06 3e ae 5e 7e bd eb bc 08 be 53 ba 5b bb
       0.1316454 -0.062102012 -0.13353316 -0.0033527806
0000c0 e5 57 87 be 97 76 c3 3d 37 9f 1e be 0c 87 1a be
       -0.26434246 0.095441036 -0.15490423 -0.15090579
0000d0 d6 fa 2f 3e 6b aa d9 3c c9 ab 59 be 75 50 11 3e
       0.1718553 0.02657052 -0.21256937 0.14190848
0000e0 2f 15 53 3d 9b ef 3a 3d 59 fb fc 3d fc 39 00 3e
       0.051533874 0.04563866 0.12352628 0.1252212
0000f0 c7 c3 5f 3e b5 c5 45 3d 8d 0a da 3d 6a 23 3e 3d
       0.21852027 0.04828425 0.10646544 0.046420492
000100 c5 80 14 bd 93 7f 08 3e f5 07 32 be 37 0f 44 3e
       -0.036255617 0.13329916 -0.17385848 0.19146429
000110 a4 ea 99 bd 90 e5 69 3e 5c e6 1f bd 4e 60 0d be
       -0.07515457 0.22841477 -0.039038047 -0.13806269
000120 e7 af 32 3f 48 20 4a 3e e0 ce 0a 3d 88 05 00 3e
       0.69799656 0.19738877 0.033888698 0.1250211
000130 2a bc ad 3d cd d9 d4 3e 76 95 cc bd d3 04 55 3d
       0.08483155 0.4157242 -0.09989445 0.052006554

decoder.weight_ih_l0 f4 [80, 1]
000000 4c 70 ed be eb 4c 0f bf 6f 97 05 be cc d0 67 bd
       -0.46374738 -0.5597674 -0.13046049 -0.05659561
000010 27 ba a2 3c d3 1c ac bd 80 3c 46 3c 16 0d b4 3d
       0.019864155 -0.08403935 0.012099385 0.087915584
000020 9c 69 d0 be bf 0e ab 3e bf fc 36 3d a2 42 33 bd
       -0.40705574 0.33409688 0.04467463 -0.043764718
000030 41 01 bb 3e 99 d9 c5 3e d7 1c f9 3e 60 0d 2b be
       0.36524394 0.38642576 0.48654816 -0.16704321
000040 26 03 01 3e 69 4b 70 3d db 2d f4 bd 7c 85 ab 3e
       0.12598857 0.058665667 -0.11922809 0.33500278
000050 cb 45 b4 3e 36 58 d4 be e1 1a 33 3e a0 72 56 3d
       0.35209498 -0.4147355 0.17490722 0.05235541
000060 8a 84 7f 3e b5 66 8d 3e c5 99 8e 3e 48 21 8b 3e
       0.24952903 0.27617422 0.27851692 0.2717383
000070 78 73 26 be 04 2f bf 3e 98 f7 bb 3d 86 e8 34 be
       -0.16254985 0.37340558 0.09178084 -0.17666826
000080 02 09 cc 3c a6 0d 2f 3e db 73 23 be 1b b1 38 be
       0.024906639 0.1709505 -0.15962164 -0.1803631
000090 93 3f 4c 3e 27 43 21 3e 51 0b ee bd 72 98 a3 3e
       0.19946127 0.15748273 -0.11623252 0.31952244
0000a0 52 2c d6 3d e4 06 c2 be a9 e9 c7 be 4d c4 46 be
       0.10457672 -0.37895882 -0.39045456 -0.1941082
0000b0 54 4a ec bb a3 ea 3b be ce 12 71 bd aa 97 2f 3d
       -0.007211009 -0.18351226 -0.058855824 0.042869247
0000c0 00 96 b2 3e 26 18 06 be 8d 28 23 be e2 97 70 bd
       0.34880066 -0.1309515 -0.15933438 -0.058738597
0000d0 9e 65 13 3c 44 b2 92 be 11 d1 ba 3e c6 69 ec bb
       0.008996395 -0.2865163 0.3648763 -0.0072147576
0000e0 54 c9 ad bd 70 9f c0 bd 0b 1b a3 bd 04 72 d3 be
       -0.08485666 -0.0940541 -0.079641424 -0.41297925
0000f0 7e 15 41 3e 8c 09 4d bf ed 5a 63 be da 90 8f 3d
       0.18855855 -0.8009269 -0.22202654 0.0701005
000100 ef a2 be 3e 78 40 9c be c9 e8 bf 3e b2 fc 5a 3e
       0.37233683 -0.30517936 0.37482288 0.21385458
000110 6c e6 2f bf 21 9c b3 3e 5b 45 3c be 81 f7 7c be
       -0.6871097 0.35080054 -0.18385832 -0.2470379
000120 d9 c0 9a 3e f1 b8 1a 3e eb a8 aa 3e 76 48 a0 3e
       0.30225256 0.15109612 0.33332 0.31305283
000130 34 1c 23 3d 28 af 7c 3e b4 0f 08 bd 82 78 d6 3d
       0.03982182 0.24676192 -0.0332181 0.10472204

decoder.weight_hh_l0 f4 [80, 20]
000000 b7 78 94 be bf a5 e2 3e 0c 8f 9b 3e 2f 72 d0 be
       -0.28998348 0.4426708 0.30382574 -0.40712115
000010 ef 10 5d be 44 5a 92 be bd b9 ff 3d 61 c5 79 3d
       -0.21588491 -0.28584492 0.12486599 0.06097925
000020 ab 0a 45 be f1 96 a5 bd 54 27 3a bd e4 e7 a3 bd
       -0.19242351 -0.080854304 -0.045447662 -0.08003214
000030 3c 79 e9 3d ca e9 40 be 94 04 ec bd be 04 62 bd
       0.11400077 -0.18839183 -0.11524311 -0.055180304
000040 cc 52 ae 3e 1e 65 54 3d 47 5b d1 3d fa fe bf 3c
       0.34047544 0.051854245 0.10222488 0.023437012
000050 3b 4e b7 be 4b 96 bb 3e 6e 35 92 3d 4b 3e 37 be
       -0.35801873 0.36638102 0.07139097 -0.17894857
000060 18 2a dd be 03 f4 61 be d0 b8 ec 3e 9c 94 c9 3e
       -0.43196177 -0.2206574 0.4623475 0.39371192
000070 64 60 f5 be 82 b9 a6 be 68 97 5f be bf bb 49 be
       -0.47925103 -0.32563406 -0.218351 -0.19700526
000080 8f 35 82 3d 60 a3 ff be 1a 2c cf 3d 65 73 7d 3e
       0.06357872 -0.49929333 0.101158336 0.24751051
000090 04 86 da 3e 1d 73 f9 3c 9c 6f ff 3d 6a f6 2f be
       0.4268037 0.030450398 0.1247246 -0.17183843
0000a0 61 d3 12 bf f9 1c 16 3f ef 81 76 3d 0c f3 05 bf
       -0.5735379 0.5863796 0.060182508 -0.52323985
0000b0 77 ec b8 be 8f 83 0e bf 21 27 5e 3e 0c 2f 78 3e
       -0.36117908 -0.5566949 0.21694614 0.24236697
0000c0 04 02 8d be 63 73 d4 be 15 4c c2 be ed 03 89 be
       -0.275406 -0.41494283 -0.3794867 -0.26760808
0000d0 48 d5 24 3d 96 32 cd be 41 f9 0a 3e 87 6f 13 3d
       0.040242463 -0.40077657 0.13571645 0.035995033
0000e0 f6 73 0f 3e de 92 e0 bc 96 e6 54 bb 04 be 08 bd
       0.1400908 -0.027413782 -0.0032486073 -0.033384338
0000f0 dc 02 62 3d ca eb 96 be b7 28 ab be 0f 12 ce 3b
       0.05517851 -0.29476768 -0.334295 0.006288774
000100 2c 2d 0e 3c 41 4e eb bd 99 d6 c4 3d ea fa 9c 3e
       0.008677762 -0.11489535 0.09611244 0.30660182
000110 62 d8 a0 3e f0 b3 e1 be ad 26 51 bd 1e af 4b be
       0.31415087 -0.44082594 -0.051062275 -0.1989102
000120 f5 63 59 3e fe ee 88 be ad 75 eb 3e 79 1c d4 3d
       0.21229537 -0.26744837 0.45988217 0.10356993
000130 d1 9b bd 3d cb 94 05 3e d7 e4 9c be 7e f0 9d be
       0.09258235 0.13045041 -0.3064334 -0.30847543
000140 3f 89 de be fd b9 9c 3e d7 34 69 3e e0 66 a2 be
       -0.43464085 0.30610648 0.22774063 -0.31719112
000150 0f d0 39 be cc a8 65 be eb f9 3b 3d 21 26 1a 3e
       -0.18145774 -0.22427672 0.045892637 0.15053608
000160 86 24 ab be f6 c4 01 3e cc 65 da bd f3 9c 6b bd
       -0.33426303 0.12672791 -0.106639475 -0.057522725
000170 f2 13 21 bd 5b a6 4d bd a8 19 4a bd 72 51 9a 3e
       -0.039325662 -0.050207477 -0.049340874 0.30140263
000180 0c d4 29 3e 39 0e 62 3d f4 27 d9 3e 38 9f 79 bd
       0.16584796 0.055189345 0.42413294 -0.06094286
000190 f5 86 8e 3e e0 c4 d9 be ac 85 3b be 78 33 b3 be
       0.2783734 -0.42533016 -0.1831271 -0.35000205
0001a0 c0 c8 35 be 52 e2 fb be 9f f6 65 3e d8 40 99 3e
       -0.17752361 -0.49196106 0.2245736 0.29932284
0001b0 0b 7b c8 3e cf 88 3d be c3 4e cb bd 37 fa 99 be
       0.39156374 -0.1850922 -0.09927132 -0.3007371
0001c0 a8 c7 56 3e 70 29 aa be ec d4 4f bd e1 a8 18 3e
       0.209746 -0.3323474 -0.050740167 0.14908172
0001d0 25 6b 91 be cd de 2b 3e 7f 48 dc be e3 27 7f be
       -0.28402057 0.1678421 -0.4302406 -0.2491756
0001e0 17 95 65 be 98 f2 91 3e 4f 95 1d 3e c4 27 22 be
       -0.22420155 0.28505397 0.15388988 -0.15835482
0001f0 1c a5 80 3c 81 19 6f bd 44 10 92 3e 55 dd d3 bd
       0.01570373 -0.05837393 0.28528035 -0.1034495
000200 4c f0 49 be 94 b1 29 be 0f 45 2b 3d 43 a1 81 be
       -0.19720572 -0.16571647 0.041813906 -0.25318345
000210 99 3d 4b be 06 4c 3f 3c 39 f9 75 be d2 ce 6a be
       -0.19847716 0.01167584 -0.24020852 -0.22930458
000220 15 ee a6 3d 62 99 70 3d be 50 20 3c ea 66 63 bd
       0.08150879 0.058740027 0.009784875 -0.05551807
000230 54 54 84 be 84 5b b7 3d d3 f8 b8 3e 3d 2e 95 be
       -0.25845587 0.08953002 0.36127338 -0.2913684
000240 de 8b 18 3c 6b 97 f2 bd ac d6 1e 3d 07 6a c0 bd
       0.009310691 -0.11845287 0.038778946 -0.09395223
000250 e4 5a 17 be 6d f2 08 bd 14 15 6c be 44 62 2d be
       -0.14780766 -0.03343432 -0.23054916 -0.16932017
000260 1c 20 8f be ea 33 be 3d 3a 74 bb bd 92 2c 16 be
       -0.27954185 0.092872456 -0.09153028 -0.1466544
000270 a8 0e b8 3d a5 e6 42 be a3 16 d5 3d 3c 20 32 be
       0.089871705 -0.19033296 0.10404708 -0.17395109
000280 59 43 60 be 02 b9 b5 3e f2 06 6d be ac 47 f3 be
       -0.21900691 0.35492712 -0.2314718 -0.4751562
000290 d3 66 6c be a0 07 b8 be 94 04 68 3e f8 ea b6 3e
       -0.230861 -0.35943317 0.22657996 0.35726142
0002a0 7f ec 28 be e6 67 12 be 73 b7 09 bf ee 26 94 be
       -0.16496466 -0.14297447 -0.53795546 -0.2893595
0002b0 a7 e5 fa 3d 95 4e dc be 22 7c a7 3e 72 d1 03 3e
       0.12250834 -0.43028703 0.32711893 0.12872866
0002c0 66 30 89 3e d8 5c a7 3e d0 dc 45 3e 9c 87 03 bf
       0.26794738 0.32688022 0.19322515 -0.513788
0002d0 9f 83 61 be ff f0 b6 3e 7d 04 d3 3d cb b9 07 3e
       -0.22022866 0.3573074 0.103035904 0.13254468
0002e0 da ce 8d be be a8 9d 3c 51 96 d3 bc d3 a2 4d 3e
       -0.27696878 0.019245502 -0.025828512 0.20081644
0002f0 4c aa a8 be 3d 29 81 be 4f 25 7b be a5 ac 9d be
       -0.32942426 -0.25226775 -0.24525951 -0.3079578
000300 55 c1 b0 3d 97 fd 8f 3d 34 d5 8f 3e a7 d8 a5 3e
       0.08630625 0.0703079 0.2809235 0.32391855
000310 0e f6 b5 3e 2e 44 89 3e 13 92 8b 3e d4 f2 b6 3c
       0.35539287 0.2680983 0.27259883 0.022332586
000320 d9 16 b3 bd 9e 8f 41 be 87 bd d4 be 45 2c 81 bd
       -0.08744592 -0.18902442 -0.41550848 -0.06307272
000330 3a b2 b9 be 32 59 ec be 55 30 a3 3c fb 33 95 3e
       -0.3626879 -0.461618 0.019920507 0.2914122
000340 d3 da 3b 3e 31 09 0b be 84 72 cc be 79 89 fe bd
       0.18345194 -0.13577725 -0.39931118 -0.124285646
000350 94 b9 1d 3d 82 ab dd be 84 00 b3 bc b6 d0 67 be
       0.03850706 -0.43294913 -0.021850832 -0.2263821
000360 a2 67 84 3c a1 70 78 3e 53 f3 bf be 0a 66 9d be
       0.016162697 0.24261715 -0.3749033 -0.30741912
000370 54 65 07 3d af 8e 0a bf 23 12 6b be 27 95 13 be
       0.03305562 -0.5412397 -0.22956137 -0.14412366
000380 65 2b e1 bd c9 90 96 be c9 d8 92 3d 34 1d be bd
       -0.10994605 -0.29407337 0.07170255 -0.09282914
000390 d5 a1 7f 3e 42 dc 9f be 0e 78 11 be e5 42 6f be
       0.24964078 -0.3122273 -0.14205953 -0.23365362
0003a0 01 ee 0d 3e a3 f7 06 be 2a 93 f5 3d 99 c9 3d be
       0.13860323 -0.13180403 0.1199096 -0.18533935
0003b0 52 00 e0 be f4 bb 8e be c4 7d c7 be cf 4c 72 be
       -0.43750244 -0.27877772 -0.3896314 -0.23662113
0003c0 f7 68 c3 be 12 3d 6e 3e 91 36 9c 3d fe 6d bc be
       -0.3816602 0.23265484 0.07627595 -0.36802667
0003d0 ba 1f 97 be d5 c0 84 be 6f 8b 4d 3e b4 90 53 3e
       -0.29516393 -0.2592837 0.20072721 0.20660669
0003e0 35 40 84 be 72 51 4a be e1 0c a4 be 72 65 3b be
       -0.25830236 -0.19757631 -0.32041076 -0.18300417
0003f0 5c 34 60 3e dc 34 a6 bc 86 7f bf bd 87 9d f1 3e
       0.21894974 -0.020288877 -0.09350495 0.47190496

decoder.bias_ih_l0 f4 [80]
000000 69 5c 65 3e e0 1f 2d 3e 55 ac e5 3e a8 04 12 3e
       0.22398533 0.1690669 0.4485804 0.14259589
000010 1a d4 20 3e 40 4f a6 3e 6d d5 17 3e 79 8d 9a 3d
       0.1570591 0.32482338 0.14827509 0.07546515
000020 23 3f f3 3e b4 bf 90 3b 02 07 37 3a 32 14 ce bc
       0.47509107 0.004417384 0.000698194 -0.025156114
000030 aa 3c 68 3e 26 78 64 3d e0 15 96 3e 59 8b 6d 3e
       0.22679392 0.055778645 0.29313564 0.23197688
000040 ac 8b ce 3e 30 2a 7d 3e b1 81 0b 3e 86 01 df 3e
       0.40340936 0.24723125 0.13623692 0.4355585
000050 72 44 53 bd 6b db 53 be 83 32 5e 3d 9e eb 1f 3c
       -0.051578946 -0.2068917 0.05424739 0.009760765
000060 d1 d9 e9 bd 9b 2f 62 bc 47 d6 28 3d fd b3 66 bd
       -0.11418498 -0.013805295 0.041219976 -0.056323994
000070 25 e9 0c 3d e7 33 f4 bd 8c f3 85 3e ad 82 0c be
       0.03440203 -0.11923962 0.26162374 -0.13721724
000080 6c a2 6d be bf 9b 8c bd d4 3e 08 be 82 96 d6 3d
       -0.2320649 -0.06865644 -0.13305217 0.10477926
000090 36 b3 0c 3e df 93 0d 3e 93 91 aa bd 55 f3 1b 3e
       0.13740239 0.1382594 -0.08328547 0.15229543
0000a0 22 b0 85 3d 08 33 ee bb 3a a1 5f bd a7 31 09 be
       0.06527735 -0.007269267 -0.054597117 -0.13397847
0000b0 b5 cb be bd 80 07 2e 3e dc 5f ae 3d 10 40 96 bc
       -0.09316198 0.16995049 0.085143775 -0.018341094
0000c0 c4 47 79 3d 2e 48 ec 3c 57 a5 1f be 89 40 00 bd
       0.060859457 0.028843012 -0.15590416 -0.031311546
0000d0 2c 98 8c 3d 62 d3 fb 3c a3 f9 0c bd 90 72 7b bd
       0.06864962 0.030740444 -0.03441776 -0.061388552
0000e0 b4 83 08 bd 9d 42 12 be 74 f4 0b 3e 2e 70 17 3e
       -0.033328727 -0.14283223 0.1366747 0.14788887
0000f0 82 eb 5e 3d 84 ea 2e 3e ed f4 ca 3e d8 50 b2 3c
       0.054423817 0.17081648 0.3963999 0.021767065
000100 8c eb 86 3e b2 2e ce 3e 70 5d 50 3e de 35 75 3e
       0.26351583 0.4027 0.20348144 0.2394633
000110 a1 7f 27 3e f8 fd 80 3d c7 c1 d5 3d c9 ca f3 3d
       0.1635728 0.06298441 0.10437351 0.119039126
000120 d5 a5 a9 3e 4d ba 05 3e de 73 c1 3d dd 34 74 3e
       0.33134332 0.1305935 0.09445928 0.2384829
000130 5b a0 cc 3d f3 03 46 3e 60 09 c4 3e c3 31 d4 3e
       0.09991523 0.19337444 0.38288403 0.41444215

decoder.bias_hh_l0 f4 [80]
000000 00 cc 72 bd 17 4b 8e 3e 19 3d 52 3e d4 01 18 3e
       -0.05927658 0.27791664 0.2053112 0.14844447
000010 c0 cd 9a 3e b4 77 d6 3e d8 02 14 be 1f 1b 4b 3e
       0.302351 0.418882 -0.1445421 0.19834565
000020 73 18 e2 3e b6 a8 fc 3c b5 87 bf 3d 72 a9 69 bd
       0.44159278 0.030842166 0.09352056 -0.05704636
000030 35 34 46 3e 10 72 f9 3d 9e 47 a9 3c b8 35 a8 3e
       0.19355853 0.12179959 0.020664033 0.32853484
000040 be 00 91 3e c9 26 ef bc e2 0d b0 3e d8 89 d0 3e
       0.2832088 -0.029193299 0.34385592 0.40730166
000050 9a 39 5f 3e fc e9 d2 3d cf b3 c5 bd d7 70 8a 3e
       0.21799317 0.10298535 -0.096534364 0.27039215
000060 aa fc 85 bc dc fe 8c bd ba ce 3d 3d 80 c6 85 3e
       -0.016355831 -0.06884548 0.046339728 0.26128006
000070 00 73 94 3c 97 d8 a3 bd a4 a4 db 3d eb 6e 61 3d
       0.018121243 -0.080002956 0.10724762 0.05503742
000080 3e ef 84 3c 91 cb 98 3d a5 27 b4 3d c7 b8 26 bd
       0.01622736 0.07460702 0.08796624 -0.04070356
000090 40 4e 22 be dd a1 73 bd e8 b4 e0 3d da 99 ef bd
       -0.15850163 -0.059480537 0.10972005 -0.11699267
0000a0 ef 4b c1 bd 16 c2 d2 3d cf 85 0d be f0 d3 2c 3e
       -0.09438311 0.10290925 -0.13820575 0.16877723
0000b0 87 93 8d 3d 60 03 5b be 33 a3 ca 3d 46 14 ca 3d
       0.06912904 -0.21388006 0.09894409 0.09867148
0000c0 ee 0c bd bd 4e c1 d1 bb 6a a5 94 be b4 ed 4e be
       -0.09230982 -0.0064012175 -0.2903245 -0.20207864
0000d0 48 73 06 3d 9c 37 b1 3d fa 3f 0e be 9a 20 2c bd
       0.032824785 0.08653185 -0.13891593 -0.04202328
0000e0 66 0c 37 bd f6 7a e3 3d 58 e3 40 be 25 3e ce 3d
       -0.04468956 0.11107437 -0.18836725 0.10070447
0000f0 d8 04 0f 3d d1 86 b7 3e ef 53 4b 3e 2f a8 25 3e
       0.03491673 0.35845044 0.19856237 0.16177438
000100 60 7c c2 bd 98 ac 6a 3e 66 d4 79 3e 0e b0 7e 3e
       -0.09496379 0.22917402 0.2439743 0.24871847
000110 84 2c 0e 3e fb 6b 1c 3e 3f dd 2e 3e f7 9c 65 3e
       0.13884169 0.15275566 0.17076586 0.22423159
000120 db 8f cd 3d af 30 9f 3e 6d b3 9b 3d 9c 14 a7 3d
       0.10037204 0.3109183 0.07602582 0.08158228
000130 69 17 fc 3d 90 4c fe bb 4d 1a a7 3e a7 37 cf 3e
       0.12309153 -0.007760592 0.32637253 0.40472147

out.0.weight f4 [1, 20]
000000 87 50 18 be 83 4c af be 68 c1 a9 be 34 66 52 3d
       -0.14874469 -0.3423806 -0.3315537 0.051367
000010 f2 bb a2 be c0 ae 22 3e 81 66 ea 3d 44 e4 2d 3e
       -0.31784016 0.15886974 0.11445332 0.16981608
000020 c1 d1 d5 3e 9b 47 7a be 51 77 2d 3e 16 1e f1 3d
       0.41761592 -0.24441378 0.16940047 0.117733166
000030 fe 16 91 3e 90 be 9b be 60 c5 ce 3e 69 d4 bd 3e
       0.28337854 -0.30418825 0.4038496 0.3707612
000040 c3 2e a4 3e ce 1e 88 3e b7 43 be 3d 0f d2 a7 be
       0.32066926 0.26586002 0.09290259 -0.3277745
